bot_modules/data/bot-data/Default/optimization_guide_prediction_model_downloads/7b898174-0540-4c75-87b1-79f310e46702/model.tflite (tflite, 409956 bytes, 166 tensors)

context_transformer_0/bottleneck_input/norm/add f4 [32]
0	0x3e6b657f	0.22987936
1	0xbe053650	-0.13009
2	0xbcf02ecf	-0.029319195
3	0x3d011f06	0.031523727
4	0xbe08e48a	-0.1336843
5	0xbcc5013d	-0.024048442
6	0xbd32828e	-0.043581538
7	0x3df019ca	0.11723669
8	0xbc651546	-0.013982123
9	0xbd68fb35	-0.056880195
10	0x3e35a2b9	0.17737855
11	0xbe1a4a92	-0.15067509
12	0x3d51675b	0.051123958
13	0x3c9ef6a4	0.019404717
14	0xbc8bec95	-0.017080585
15	0xbc9cdf94	-0.01914958
16	0xbbc5a4f8	-0.0060316287
17	0x3e29a095	0.16565163
18	0xbd0b9e0c	-0.034086272
19	0xbbc6ab22	-0.006062881
20	0x3dfef986	0.124499366
21	0x3cad579f	0.021159945
22	0xbb9bd6ec	-0.0047558453
23	0xbd8640ca	-0.06555326
24	0x3d1708c9	0.036873613
25	0x3c49ac46	0.01230914
26	0x3c7f16d4	0.0155694075
27	0xbda25dbe	-0.07928036
28	0x3ca92f90	0.020652562
29	0xbe381762	-0.1797767
30	0xbc0e43c5	-0.00868315
31	0x3d340cac	0.043957397

context_transformer_1/bottleneck_input/norm/add f4 [32]
0	0x3dce5fe6	0.10076885
1	0xbe4f414e	-0.20239756
2	0x3dcddafc	0.100515336
3	0x3df3dba0	0.119071245
4	0x3deb88a5	0.11500672
5	0xbc3d3b64	-0.011549804
6	0x3bddb75a	0.006766242
7	0xbd4d8e54	-0.050184563
8	0x3daf439c	0.08557817
9	0xbd54bc3f	-0.051937338
10	0x3dfff4e8	0.12497884
11	0x3e1779d1	0.14792563
12	0x3c7be5cf	0.015374615
13	0xbb3ec380	-0.0029108226
14	0x3e23dfff	0.16003416
15	0xbc9a6c32	-0.01885042
16	0x3e561994	0.20908195
17	0x3cecd29e	0.028909024
18	0xbd7b5cef	-0.061367925
19	0xbe1a9f78	-0.15099895
20	0x3cc7a8d3	0.024372494
21	0x3db2a534	0.08722916
22	0xbcbeea24	-0.023305006
23	0x3d24c959	0.040231083
24	0xbd213d11	-0.039364878
25	0xbc429846	-0.011877125
26	0xbb942194	-0.0045206044
27	0x3ee32da1	0.4437075
28	0xbd4733ae	-0.04863327
29	0xbcf4ed10	-0.029898196
30	0xbd7331fb	-0.059373837
31	0x3e8a24d5	0.26981226

mention_transformer_0/bottleneck_input/norm/add f4 [32]
0	0x3da178b6	0.07884352
1	0xbd422da6	-0.047406815
2	0x3e2d4ecc	0.1692459
3	0x3da202f6	0.07910721
4	0xbe5c0ae0	-0.21488523
5	0x3ca5a14a	0.02021851
6	0x3de356d0	0.111005425
7	0xbdf8e53e	-0.121530995
8	0xbc41988a	-0.011816153
9	0xbc62547b	-0.013814087
10	0x3cb53356	0.022119205
11	0x3cb22c7a	0.021749724
12	0xbd066544	-0.03281142
13	0xbad7f718	-0.0016476838
14	0xbbf027f2	-0.0073289806
15	0xbd4c79fc	-0.04992102
16	0x3e8212ed	0.25405064
17	0xbd636f6c	-0.055526182
18	0xbda75c16	-0.08171861
19	0x3dd4194a	0.10356386
20	0x3d1adc7f	0.037807938
21	0x3e251b3e	0.16123673
22	0x3e3617fe	0.1778259
23	0xbeab1188	-0.33411813
24	0x3e06f1ed	0.13178225
25	0x3e282498	0.1642021
26	0x3ce4fe26	0.027953219
27	0x3d6dfaa6	0.058100365
28	0x3d9810d5	0.074250855
29	0xbd499994	-0.04921873
30	0x3e3c7cf4	0.18407041
31	0xbde09ea0	-0.10967755

mention_transformer_1/bottleneck_input/norm/add f4 [32]
0	0x3dfa0544	0.122080356
1	0xbd918820	-0.07106042
2	0x3ec22ee8	0.37926412
3	0xbeb864c5	-0.3601438
4	0xbec68f0f	-0.3878102
5	0x3f03fcd4	0.5155766
6	0x3da2d4ab	0.079507194
7	0x3ebe6748	0.37188172
8	0xbc278102	-0.010223629
9	0xbe30bf2d	-0.17260428
10	0xbe0a2f16	-0.13494524
11	0x3e172cd6	0.14763197
12	0x3e6c5506	0.23079309
13	0x3d9dc7e1	0.077041395
14	0xbe8bc334	-0.27297366
15	0xbe78e5f8	-0.24306476
16	0xbe3fd48e	-0.18733427
17	0xbe3beba1	-0.18351604
18	0xbdaa1f0f	-0.08306705
19	0xbdc9b7a2	-0.09849478
20	0xbe038609	-0.12844099
21	0x3e281d90	0.16417527
22	0xbd7a4db1	-0.06110925
23	0xbe5128ce	-0.20425722
24	0xbdb772ed	-0.08957467
25	0x3d2cb660	0.042166114
26	0x3e70f8ac	0.23532361
27	0x3b8b4acc	0.00425086
28	0x3d87c358	0.06629056
29	0x3da31892	0.07963671
30	0xbe9c457f	-0.3052177
31	0xbe36b01b	-0.17840616

context_transformer_0/attention/value/add;context_transformer_0/attention/value/einsum/Einsum;context_transformer_0/attention/value/add/ReadVariableOp/resource f4 [32]
0	0x3d5602c1	0.05224872
1	0xbcb9e166	-0.022690486
2	0x3dce29a8	0.10066539
3	0x3dc701f5	0.0971717
4	0x3cd159fc	0.025555603
5	0xbcf898ed	-0.030346358
6	0x3cfeff2b	0.031127533
7	0x3d91afd5	0.071136154
8	0x3cfac1c2	0.030609969
9	0x3c878ee2	0.016547624
10	0xbc414ec4	-0.011798564
11	0x3ce086ed	0.027408088
12	0x3d646706	0.055762313
13	0xbd9b0700	-0.075696945
14	0x3d25fa17	0.040521707
15	0xbc2b0834	-0.0104389675
16	0xbc072374	-0.008248199
17	0x3c946e75	0.018119076
18	0xbce64af8	-0.02811192
19	0xbd7a5ad7	-0.061121788
20	0x3cbc25e3	0.022967285
21	0x3c01ab44	0.007914368
22	0xbbc39220	-0.005968347
23	0xbd61745a	-0.055042602
24	0xbd5024e2	-0.050816424
25	0x3d8e6b7c	0.06954095
26	0x3d854a01	0.06508256
27	0xbcbbee27	-0.022940708
28	0x3db280a4	0.087159425
29	0x3cc36a3c	0.023854367
30	0x3cbba3a7	0.022905184
31	0x3d44a496	0.048008524

context_transformer_0/bottleneck_input/norm/mul f4 [32, 32]
0	0xbdcba85e	-0.09944223
1	0xbe7ee8be	-0.24893472
2	0x3e25117e	0.16119954
3	0x3dbb06ab	0.09132131
4	0x3e0e0d3d	0.13872238
5	0xbd77a6fa	-0.060461976
6	0xbe1c0dc1	-0.15239622
7	0x3d5c5ed9	0.05380139
8	0x3e800702	0.25005347
9	0x3d491a6b	0.04909746
10	0x3daddc85	0.084893264
11	0xbd13682c	-0.035988018
12	0x3e28245e	0.16420123
13	0x3e26190c	0.16220492
14	0xbb84ef28	-0.00405683
15	0x3d905cde	0.07048963
16	0xbdc71be1	-0.09722114
17	0x3d827115	0.06369225
18	0x3e2cdf8e	0.16882154
19	0x3dd75f87	0.10516267
20	0x3e08841f	0.1333165
21	0x3d067550	0.03282672
22	0xbbea7a91	-0.0071557243
23	0xbe4f34d1	-0.20234992
24	0xbd8db7ae	-0.069198
25	0x3e2b76f8	0.16744602
26	0xbe638bf6	-0.2222136
27	0x3df17a89	0.1179095
28	0x3e2e2941	0.17007925
29	0x3e7ebfcb	0.2487785
30	0x3dd9ff76	0.106444284
31	0x3d647a5c	0.055780753
32	0xbebd6b1b	-0.36995777
33	0xbdf78acf	-0.120870225
34	0xbe2be786	-0.16787538
35	0x3eb691a6	0.35657996
36	0xbe98f8e9	-0.29877403
37	0x3e5e9270	0.21735549
38	0x3ef91cc5	0.48654762
39	0x3e9582dd	0.29201403
40	0xbda9351f	-0.08262085
41	0xbe805240	-0.25062752
42	0xbf032a42	-0.51236355
43	0xbe1ad0bf	-0.15118693
44	0xbf08beea	-0.5341631
45	0x3d11fe13	0.035642695
46	0x3eb1793b	0.34662804
47	0x3d04d8c3	0.032433283
48	0x3f43f4d3	0.7654545
49	0x3e8c8a3b	0.2744921
50	0x3f08dd4b	0.53462666
51	0x3e4b1992	0.19833973
52	0xbe023bbd	-0.12718101
53	0xbd78d726	-0.060752057
54	0x3de2273a	0.11042638
55	0xbea80be3	-0.3282157
56	0x3e827b5e	0.25484747
57	0xbe1e397c	-0.15451616
58	0x3ec10fe4	0.37707436
59	0x3d812d57	0.06307476
60	0x3dc6f2ab	0.09714254
61	0x3edf4b9e	0.4361238
62	0xbec6491e	-0.3872766
63	0x3e8bdebd	0.27318373
64	0x3e53d0d3	0.20685129
65	0xbea204dd	-0.31644335
66	0xbe80fc24	-0.25192368
67	0xbdea150f	-0.11429798
68	0xbe9b31cb	-0.30311427
69	0x3dbf93c3	0.09354355
70	0x3eaba566	0.33524626
71	0xbe2a86a7	-0.16652928
72	0x3d8aef5f	0.06783938
73	0xbe7ad98a	-0.24497047
74	0x3e0cfda8	0.13768637
75	0x3e599514	0.21248275
76	0xbef78e73	-0.48350868
77	0xbe479a8c	-0.19492549
78	0x3dcb9e50	0.09942305
79	0x3e9c69b2	0.3054939
80	0xbe4e1cdc	-0.20128196
81	0xbe4b5220	-0.19855547
82	0xbd1d9e3b	-0.03848098
83	0xbe90f81e	-0.28314298
84	0x3d8c79b0	0.068591475
85	0x3e143afe	0.14475629
86	0x3e6e9876	0.23300347
87	0x3e82a779	0.25518396
88	0x3d2a8d30	0.041638553
89	0xbe7edff8	-0.24890125
90	0x3e1cf5c6	0.1532813
91	0x3e368101	0.17822649
92	0xbd5ee318	-0.054415792
93	0xbeb57868	-0.35443425
94	0x3b09440e	0.0020945105
95	0x3d4b2f2c	0.049605533
96	0x3f4259a4	0.7591803
97	0xbe4f1bde	-0.20225474
98	0x3e48d516	0.19612536
99	0x3d1bd829	0.038047943
100	0x3e5bf52b	0.21480243
101	0xbe70612e	-0.23474571
102	0xbec2347b	-0.37930664
103	0x3e89f3ea	0.26943904
104	0xbecaea5c	-0.39631927
105	0xbd1f2f5f	-0.038863536
106	0x3e8dc812	0.27691704
107	0x3f0a81e5	0.54104453
108	0x3e680896	0.22659525
109	0xbf02a7d8	-0.5103736
110	0xbcf943e2	-0.030427877
111	0x3f9add4e	1.2098787
112	0xbe3a8146	-0.18213376
113	0xbe935f47	-0.28783628
114	0xbe9de813	-0.3084112
115	0xbd08353e	-0.0332539
116	0xbee24ec4	-0.44200718
117	0x3ea2ad9e	0.31773084
118	0xbe1177c9	-0.1420585
119	0xbec0ff96	-0.37694997
120	0xbdcf5664	-0.101238996
121	0x3dd16722	0.10224749
122	0x3dfa90eb	0.12234672
123	0x3ece0011	0.40234426
124	0x3e86a10f	0.26294753
125	0xbf016db9	-0.5055805
126	0x3e62389d	0.22091909
127	0x3e585111	0.21124674
128	0xbe034875	-0.12820609
129	0xbe6d32b6	-0.23163876
130	0xbe755224	-0.23957115
131	0xbe1700f0	-0.14746451
132	0xbe1b26cd	-0.1515152
133	0xbc2ca41f	-0.010537176
134	0x3e74ed3c	0.23918623
135	0x3e1a2929	0.15054764
136	0x3e6328a4	0.22183472
137	0xbe4a90ab	-0.19781749
138	0x3e23352e	0.15938255
139	0x3dbefd3a	0.09325643
140	0xbe87830e	-0.26467174
141	0xbcb9d979	-0.022686707
142	0x3e3e230f	0.18568061
143	0x3db44c23	0.088035844
144	0xbeacd1f0	-0.3375392
145	0xbd4eb9cf	-0.05047017
146	0x3ec752f4	0.38930476
147	0x3d61def8	0.05514428
148	0xbda7eb09	-0.08199126
149	0xbd271161	-0.04078806
150	0xbccb77f7	-0.024837477
151	0xbe3c19e0	-0.18369246
152	0xbed81c38	-0.4220903
153	0xbe267378	-0.16254985
154	0x3e4f6c2c	0.20256108
155	0xbe84c7e4	-0.25933754
156	0xbe025a8e	-0.12729856
157	0xbe42fb35	-0.1904114
158	0xbedb2738	-0.4280336
159	0x3e9634da	0.29337198
160	0x3e79d2a0	0.24396753
161	0xbe7d046a	-0.24708715
162	0x3eb0b221	0.34510902
163	0x3c9e4e16	0.019324344
164	0x3d188bb0	0.03724259
165	0x3dc533d0	0.09629023
166	0xbed2c168	-0.41163182
167	0x3e07d500	0.13264847
168	0xbdfead8d	-0.12435446
169	0xbd966f83	-0.07345488
170	0x3ec39123	0.38196668
171	0xbec0ca0a	-0.37654144
172	0x3cc3b7e9	0.023891406
173	0xbe2ae439	-0.16688623
174	0x3e62ac20	0.22135973
175	0x3dc02e47	0.09383827
176	0x3e0c6f42	0.13714316
177	0xbdb6f310	-0.08933079
178	0xbc3ae282	-0.011406543
179	0xbe486c99	-0.19572677
180	0xbea13af1	-0.3149028
181	0xbe8fb2a2	-0.28065974
182	0xbe7a01f1	-0.24414803
183	0x3e1dc39d	0.15406652
184	0x3baf8fbd	0.005357711
185	0x3ea62db2	0.32456738
186	0x3f36ef08	0.7145848
187	0x3e2db4e3	0.16963534
188	0x3d35eb63	0.044413935
189	0xbeeb9dee	-0.46018928
190	0x3e3038f2	0.17209223
191	0x3ec17b9a	0.37789613
192	0xbe67e92b	-0.2264754
193	0x3d133613	0.03594024
194	0xbd82de36	-0.063900396
195	0xbe126f16	-0.14300188
196	0xbdd353cd	-0.10318718
197	0xbd2e4175	-0.042542893
198	0xbada14df	-0.00166383
199	0xbe091e6a	-0.13390508
200	0xbd90bf93	-0.0706779
201	0xbd010da3	-0.031507146
202	0x3f06c22c	0.5264003
203	0x3e80ed56	0.25181073
204	0xbe4604a2	-0.19337705
205	0x3e8ffd70	0.28123045
206	0xbc3f5439	-0.011677795
207	0xbe31e694	-0.17373115
208	0x3dd50b21	0.10402513
209	0x3e850b05	0.2598497
210	0xbebccaf8	-0.36873603
211	0x3df0ffcc	0.117675394
212	0xbec33fe5	-0.38134685
213	0xbdf0e084	-0.11761573
214	0x3e0e624d	0.13904686
215	0x3e26cca9	0.16289009
216	0x3dffd0b8	0.12490982
217	0xbe2a1852	-0.1661084
218	0x3f0dae78	0.55344343
219	0xbe08a9d9	-0.13346042
220	0xbef18b69	-0.47176674
221	0x3d7f86c9	0.0623844
222	0xbd95d037	-0.073151045
223	0x3df17264	0.117893964
224	0xbe96d424	-0.29458725
225	0xbd933c32	-0.07189216
226	0x3f0169a2	0.5055181
227	0x3e55fd6c	0.20897454
228	0x3e1136aa	0.14181009
229	0xbe2f35c2	-0.1711035
230	0xbc7c3e61	-0.015395732
231	0x3e6b27dd	0.22964425
232	0xbe878d60	-0.26475048
233	0xbe00ae2f	-0.12566446
234	0x3eec8c46	0.4620077
235	0xbd974690	-0.073865056
236	0x3e8d7c62	0.2763396
237	0x3e0bf47a	0.13667479
238	0xbe7f4f12	-0.24932507
239	0x3d8537b2	0.06504764
240	0x3e03b5c1	0.12862302
241	0x3e4346f7	0.1907004
242	0x3e32495c	0.17410797
243	0xbed5792a	-0.41694003
244	0x3e068bb8	0.13139236
245	0x3ef66b71	0.48128846
246	0xbdecf375	-0.11569873
247	0x3da3bedc	0.07995388
248	0x3f0dedc6	0.5544094
249	0x3d509ece	0.050932698
250	0x3cfafa04	0.030636795
251	0xbd9d2130	-0.07672346
252	0xbe23aa28	-0.15982878
253	0xbebaffac	-0.36523187
254	0x3ebc4b90	0.367764
255	0xbc948feb	-0.018135032

context_transformer_0/kq_shared_bottleneck/norm/mul;context_transformer_0/kq_shared_bottleneck/norm/add;context_transformer_0/attention/key/einsum/Einsum;context_transformer_0/attention/key/add;context_transformer_0/attention/value/einsum/Einsum;context_transformer_0/attention/key/add/ReadVariableOp/resource f4 [32]
0	0xbdbd3f69	-0.0924061
1	0x3d8818e4	0.066453725
2	0x3e047cc7	0.12938224
3	0x3e0c0867	0.1367508
4	0x3ebb86d9	0.36626318
5	0x3e289e08	0.16466534
6	0x3e17531c	0.14777797
7	0x3e434c33	0.19072036
8	0x3e709acc	0.2349655
9	0xbe305b65	-0.17222364
10	0x3e02f5d5	0.1278909
11	0xbd57b7e1	-0.052665595
12	0xbe09431d	-0.13404508
13	0xbe203614	-0.15645629
14	0x3e12c996	0.14334711
15	0xbd466197	-0.048432913
16	0x3e803a18	0.25044322
17	0x3e8ff615	0.28117433
18	0xbe96eff4	-0.29479945
19	0x3e8e08f7	0.27741215
20	0xbe4c5910	-0.1995585
21	0x3e4859b6	0.19565472
22	0xbe86aa26	-0.26301688
23	0x3e27a9fb	0.16373436
24	0x3daf6da9	0.08565838
25	0xbd9134a0	-0.070901155
26	0xbd25fcbd	-0.040524233
27	0xbe82da83	-0.25557336
28	0x3c61da0f	0.013784899
29	0x3c94d39b	0.018167308
30	0x3d72d1a4	0.05928196
31	0x3e12cf83	0.14336972

context_transformer_0/kq_shared_bottleneck/norm/mul;context_transformer_0/kq_shared_bottleneck/norm/add;context_transformer_0/attention/key/einsum/Einsum;context_transformer_0/attention/key/add;context_transformer_0/attention/value/einsum/Einsum;context_transformer_0/attention/key/add/ReadVariableOp/resource1 f4 [32, 32]
0	0xbcfc3269	-0.030785756
1	0x3ea44909	0.3208697
2	0x3b67ebe5	0.0035388407
3	0x3e532ebe	0.206233
4	0xbe665768	-0.2249428
5	0x3dd31716	0.10307138
6	0x3e4a9fc4	0.19787508
7	0x3e14b5a1	0.14522411
8	0x3e11ff95	0.14257653
9	0xbe1df36e	-0.15424892
10	0x3d922a42	0.07136966
11	0xbe002991	-0.12515856
12	0x3dd1ec68	0.10250169
13	0x3ccca9cf	0.024983315
14	0xbd21abd5	-0.039470512
15	0xbcea78f8	-0.028622136
16	0x3dfb15d6	0.12260024
17	0x3e01034c	0.12598914
18	0x3d1c837c	0.03821133
19	0xbe6310c0	-0.22174358
20	0xbd92faad	-0.07176719
21	0xbd990280	-0.0747118
22	0xbdd58634	-0.10425988
23	0x3dd7529e	0.10513805
24	0x3d79b850	0.06096679
25	0xbe78dcce	-0.2430298
26	0xbdcb09cb	-0.09913977
27	0xbdebadc0	-0.115077496
28	0xbe653f7a	-0.22387496
29	0x3d78e1d5	0.060762245
30	0xbe0fd078	-0.14044368
31	0xbe06a26c	-0.13147897
32	0x3dab2941	0.08357478
33	0xbe92f9f2	-0.28706318
34	0xbb93b161	-0.004507229
35	0xbe501424	-0.20320183
36	0x3e3d82bb	0.18506901
37	0xbd910aaf	-0.07082116
38	0xbe426845	-0.18985088
39	0xbded89fd	-0.11598585
40	0xbdec38f3	-0.115343
41	0x3e13c687	0.14431201
42	0xbcb466fa	-0.02202176
43	0x3dbf4057	0.09338444
44	0xbe04601e	-0.12927291
45	0x3c4cdf1d	0.012504366
46	0xbc7688ee	-0.015047295
47	0xbd2ed713	-0.04268558
48	0xbdacbfdf	-0.08435034
49	0xbddee0c3	-0.10882714
50	0xbc9e16b2	-0.019297931
51	0x3e1df3ad	0.15424986
52	0x3d1d937e	0.038470738
53	0x3dbb88ec	0.09156975
54	0x3dcf35fe	0.1011772
55	0xbd3d33c8	-0.04619196
56	0xbcbcaacb	-0.02303066
57	0x3e831695	0.25603166
58	0x3de182e4	0.110112935
59	0x3e0c3eb7	0.13695799
60	0x3e52a0b3	0.20569114
61	0xbd4a93cd	-0.04945736
62	0x3e0149ac	0.1262576
63	0x3de0e60e	0.109813794
64	0x3db4c05c	0.08825752
65	0xbe94dda0	-0.29075336
66	0x3c52967f	0.012853264
67	0xbe8e85a9	-0.2783635
68	0x3df43bcf	0.1192547
69	0xbe030ab3	-0.1279705
70	0xbe43ed2d	-0.19133444
71	0xbe3a1590	-0.18172288
72	0xbdf92e0c	-0.12166986
73	0x3e028e14	0.12749511
74	0xbdb60b0d	-0.088888265
75	0x3d5816c1	0.052756075
76	0xbe06b881	-0.1315632
77	0xbd1d9ded	-0.038480688
78	0x3d3d643c	0.04623817
79	0xbce6916a	-0.02814551
80	0xbdcc30f9	-0.09970278
81	0xbde82307	-0.11334806
82	0xbcca536d	-0.024697984
83	0x3e3645ab	0.17800014
84	0x3d9b06d5	0.075696625
85	0x3dc26e79	0.09493727
86	0x3e01e150	0.12683606
87	0xbd94cce6	-0.07265644
88	0xbd8c4767	-0.068495564
89	0x3e82b52f	0.25528857
90	0x3e317a8c	0.17331904
91	0x3e6772c4	0.22602373
92	0x3e417198	0.18890989
93	0xbd4be13e	-0.049775355
94	0x3e0293fa	0.12751761
95	0x3dd4e40c	0.10395059
96	0x3dc9e6a2	0.09858443
97	0xbeae8c09	-0.34091213
98	0xbb4374fd	-0.002982437
99	0xbe8c99a4	-0.27460968
100	0x3df9104f	0.12161314
101	0xbe17697f	-0.14786337
102	0xbe75a1a7	-0.23987447
103	0xbe2f9095	-0.17144997
104	0xbe085538	-0.13313758
105	0x3e489037	0.19586264
106	0xbe049065	-0.12945707
107	0x3d0e8fb5	0.03480502
108	0xbdee0fe8	-0.116241276
109	0xbd478916	-0.04871472
110	0x3d6582b5	0.056032855
111	0xba46bd99	-0.0007581353
112	0xbe23b26e	-0.15986034
113	0xbe371279	-0.1787814
114	0xbd7f1abc	-0.062281355
115	0x3e826777	0.25469562
116	0x3d920e11	0.07131589
117	0x3e0d6393	0.13807516
118	0x3e081b4a	0.1329166
119	0xbe180726	-0.14846477
120	0xbdb32314	-0.08746925
121	0x3e9d15db	0.30680737
122	0x3e21dde5	0.15807302
123	0x3e11ae74	0.14226705
124	0x3e357cd2	0.17723396
125	0xbd8a0350	-0.06738913
126	0x3e24f545	0.16109188
127	0x3e0b09bc	0.13577932
128	0x3c7e06e4	0.015504573
129	0xbde42a04	-0.11140826
130	0x3e9c4b19	0.30526045
131	0xbd816a67	-0.06319123
132	0x3f7762c6	0.9663509
133	0xbd36ddc0	-0.04464507
134	0x3e07e5f6	0.13271317
135	0xbd3c1d5d	-0.04592644
136	0x3e300373	0.17188816
137	0xbb0c9436	-0.0021450645
138	0x3ddbb30a	0.10727508
139	0xbe322e6e	-0.17400524
140	0x3d2e1b33	0.042506408
141	0xbdb8bce6	-0.090204045
142	0x3e621057	0.22076546
143	0xbbcba8c6	-0.0062151877
144	0xbd400438	-0.046879023
145	0x3d979ec7	0.07403331
146	0x3d9e2d58	0.077234924
147	0xbf2a0414	-0.6641247
148	0xbbb985c5	-0.0056616985
149	0xbd9adb42	-0.07561351
150	0xbe01b4a7	-0.1266657
151	0x3e50be6c	0.2038514
152	0x3ded23d1	0.11579097
153	0x3d32fc20	0.043697476
154	0x3eb95374	0.36196482
155	0x3c967c91	0.018369945
156	0xbf6f255a	-0.9341637
157	0xbde5cc0d	-0.1122056
158	0xbc9b8e3d	-0.018988723
159	0x3b9d4cc2	0.00480041
160	0x3df9d36d	0.121985294
161	0xbea4d327	-0.32192346
162	0x3d71dea7	0.05905023
163	0xbe81f793	-0.25384197
164	0x3e207d0d	0.15672703
165	0xbe1ae39e	-0.15125892
166	0xbe4bdb8a	-0.19907966
167	0xbe4267a4	-0.18984848
168	0xbe04bf61	-0.1296363
169	0x3e22bc23	0.15892081
170	0xbd859765	-0.06523017
171	0x3dc17fd1	0.09448207
172	0xbe19281c	-0.14956707
173	0xbdcdcc5e	-0.100487456
174	0x3d7e9ee0	0.062163234
175	0x3d2137c0	0.039359808
176	0xbe2f7887	-0.17135821
177	0xbe040eb0	-0.12896228
178	0xbd33debb	-0.043913584
179	0x3e431a58	0.19053018
180	0x3de1d197	0.11026304
181	0x3e15ac6c	0.14616555
182	0x3e150082	0.14550975
183	0xbe0295bb	-0.1275243
184	0xbd952301	-0.07282067
185	0x3e8e99fa	0.2785185
186	0x3df0caff	0.117574684
187	0x3e14c783	0.14529233
188	0x3e1eaa5a	0.15494671
189	0xbdaed535	-0.0853676
190	0x3e2263a9	0.1585833
191	0x3e2b4abe	0.1672773
192	0x3dc57497	0.096413784
193	0xbe92c207	-0.28663656
194	0x3cbe0495	0.023195544
195	0xbe7fc8c0	-0.24978924
196	0x3e1cf002	0.1532593
197	0xbe1edfe2	-0.15515092
198	0xbe5aec29	-0.2137915
199	0xbe2b4956	-0.16727194
200	0xbdefaedd	-0.117032744
201	0x3e1e58c5	0.1546355
202	0xbda9bc5a	-0.08287878
203	0x3d4a4099	0.04937801
204	0xbddf1a90	-0.10893738
205	0xbd753671	-0.059866372
206	0x3d546e00	0.051862717
207	0x3cbc9622	0.023020808
208	0xbe0227d3	-0.12710504
209	0xbe004152	-0.12524918
210	0xbd892e02	-0.066982284
211	0x3e4a7557	0.19771324
212	0x3da42063	0.0801399
213	0x3e11e045	0.14245708
214	0x3dd2e4f1	0.10297573
215	0xbdf7f8fa	-0.121080354
216	0xbdc05927	-0.093920045
217	0x3e798ea9	0.24370827
218	0x3e246030	0.16052318
219	0x3e24c982	0.16092494
220	0x3e29b698	0.1657356
221	0xbd7f1e8b	-0.062284987
222	0x3e161855	0.1465772
223	0x3dbd2144	0.092348605
224	0x3e0183ac	0.12647885
225	0xbea2cacd	-0.3179535
226	0x3d8b98f0	0.0681628
227	0xbe8ca967	-0.27472994
228	0x3d358801	0.044319157
229	0xbe335c89	-0.17515768
230	0xbe70e1c6	-0.23523626
231	0xbe4e88f9	-0.20169438
232	0xbde3b515	-0.11118523
233	0x3e424df2	0.18975046
234	0xbdde389f	-0.10850643
235	0x3cbf8d39	0.02338277
236	0xbe0d7a3c	-0.1381616
237	0xbddc9897	-0.10771292
238	0x3dc22778	0.09480184
239	0x3d688bd5	0.05677398
240	0xbe184b94	-0.14872581
241	0xbe20da32	-0.15708235
242	0xbdb5c471	-0.08875359
243	0x3e44fc0d	0.19236775
244	0x3de5133b	0.111853085
245	0x3e13fad3	0.1445115
246	0x3e1abd2f	0.1511123
247	0xbdf5d155	-0.120028175
248	0xbdb406f1	-0.087903865
249	0x3ea474f1	0.3212047
250	0x3e5437ae	0.20724365
251	0x3e6bc41a	0.23024026
252	0x3e120cde	0.14262721
253	0xbd9e509b	-0.07730218
254	0x3e23d955	0.16000874
255	0x3e2194f1	0.15779473

context_transformer_0/kq_shared_bottleneck/norm/mul;context_transformer_0/kq_shared_bottleneck/norm/add;context_transformer_0/attention/query/einsum/Einsum;context_transformer_0/attention/query/add;context_transformer_0/attention/value/einsum/Einsum;context_transformer_0/attention/query/add/ReadVariableOp/resource;context_transformer_0/attention/Mul;context_transformer_0/attention/Mul/y f4 [32]
0	0xbe081dfc	-0.13292688
1	0x3e061005	0.13092048
2	0x3e1ddcf9	0.15416326
3	0x3e186489	0.14882101
4	0x3e3bc60f	0.18337272
5	0x3e22bc93	0.15892248
6	0x3e142aaa	0.144694
7	0x3e2f302d	0.17108221
8	0x3e3999d1	0.18125083
9	0xbe296563	-0.16542582
10	0x3daef7a3	0.08543327
11	0xbd6f8127	-0.05847278
12	0xbdc0cba3	-0.094138406
13	0xbdda2c58	-0.10652989
14	0x3e00663e	0.12539002
15	0xbd167ccc	-0.03674011
16	0x3dc9fa17	0.09862154
17	0x3dcffe23	0.101558946
18	0xbe49dbc2	-0.19712737
19	0x3da5c6a1	0.08094526
20	0xbd8ce08f	-0.06878769
21	0x3df0f394	0.11765209
22	0xbdc528ca	-0.096269205
23	0x3e1b37fe	0.15158078
24	0x3d06be64	0.032896414
25	0xbd02b337	-0.031909194
26	0x3d55e05c	0.05221592
27	0xbdd7c2ee	-0.10535227
28	0x3d5507d5	0.052009422
29	0x3da03e02	0.07824327
30	0x3d1495ee	0.036275797
31	0x3d03e1b9	0.032197688

context_transformer_0/kq_shared_bottleneck/norm/mul;context_transformer_0/kq_shared_bottleneck/norm/add;context_transformer_0/attention/query/einsum/Einsum;context_transformer_0/attention/query/add;context_transformer_0/attention/value/einsum/Einsum;context_transformer_0/attention/query/add/ReadVariableOp/resource;context_transformer_0/attention/Mul;context_transformer_0/attention/Mul/y1 f4 [32, 32]
0	0xbd09b766	-0.033622168
1	0xbd0a60f8	-0.033783883
2	0x3d32171f	0.04347908
3	0x3d24ea6e	0.040262632
4	0xbda0897f	-0.07838725
5	0xbd459b47	-0.048243787
6	0xbc0ba3e9	-0.008522966
7	0x3d7055dd	0.058675636
8	0x3cac71f9	0.02105044
9	0x3cac7fa4	0.021056958
10	0xbc56796e	-0.0130904745
11	0xbda02372	-0.07819261
12	0xbbb62e23	-0.005559699
13	0xbca2f2c3	-0.019891148
14	0x3cc3c5cc	0.023898028
15	0x3d1c5ee8	0.038176447
16	0x3a780a13	0.00094619504
17	0xba52975c	-0.00080334186
18	0xb99ae113	-0.00029540862
19	0xbc842a43	-0.016133433
20	0x3c4e0228	0.012573756
21	0x3bbe9de1	0.0058171605
22	0x3c1857a9	0.009298244
23	0x3c78862e	0.01516871
24	0xba874fbd	-0.0010323446
25	0x3bb6aa4b	0.0055744997
26	0xbd427ad9	-0.047480438
27	0xbd7d6976	-0.061868154
28	0x3cbae613	0.022814786
29	0xbcad4df3	-0.021155333
30	0x3a32bc28	0.00068181986
31	0x3ccbc680	0.024874926
32	0x3d6cf50a	0.057850875
33	0x3ca2707d	0.01982903
34	0xbca77181	-0.020439865
35	0xbd196072	-0.037445493
36	0x3d74e7c0	0.059791327
37	0x3d25fe60	0.040525794
38	0xbb6cac7b	-0.0036113549
39	0xbd6d9dfd	-0.058011997
40	0xbc626d5b	-0.013820018
41	0xbb72ca3b	-0.0037046808
42	0x3a36f8cc	0.00069798226
43	0x3d743536	0.05962106
44	0xbb931509	-0.0044885916
45	0x3cce549a	0.025186826
46	0xbcd9fc5b	-0.02660959
47	0xbcdec4a8	-0.027193382
48	0x39202ee1	0.00015276253
49	0xbc856935	-0.016285518
50	0x3ba896a6	0.005144912
51	0x3b9008ef	0.004395596
52	0xbbfd9dd1	-0.0077397604
53	0xba9048a0	-0.0011007972
54	0xbbbaaea5	-0.005697089
55	0xbca923f9	-0.020647036
56	0xbc1a8491	-0.00943102
57	0x3afa512e	0.001909768
58	0x3ccf4397	0.025300784
59	0x3d8a0665	0.06739501
60	0xbcf3936b	-0.02973338
61	0x3c4da9f3	0.012552726
62	0x3c4250be	0.011860071
63	0xbca93e5f	-0.020659624
64	0x3d8b9729	0.06815941
65	0x3d426fcc	0.0474699
66	0xbb90ab72	-0.004414969
67	0xbd5e1d41	-0.054227117
68	0x3d69be70	0.05706638
69	0x3cf0916a	0.029366214
70	0x3c19ae5e	0.009379951
71	0xbd8afb8c	-0.0678626
72	0xbb91e872	-0.0044527585
73	0xbcc031c0	-0.023461223
74	0x3c5d2134	0.013496686
75	0x3d711130	0.058854282
76	0x398536ab	0.00025408468
77	0x3cb73f95	0.022369185
78	0xbc8aeae0	-0.0169577
79	0xbd48f7db	-0.0490645
80	0x3b824c32	0.0039763683
81	0xbbf52d2d	-0.007482192
82	0xbb8f98ad	-0.004382214
83	0xbc00487d	-0.007829783
84	0xbbf99078	-0.007616099
85	0xbc8dd7f7	-0.017314894
86	0xbcb1dfd2	-0.021713171
87	0xbc1f8d33	-0.009738254
88	0xbc5eba3e	-0.013594208
89	0x3c1f19dd	0.009710756
90	0x3d7cf332	0.061755367
91	0x3dba8ee9	0.09109289
92	0xbd80a923	-0.0628226
93	0x3c5a855a	0.013337458
94	0xbc48fdf7	-0.012267581
95	0xbcd0cbb9	-0.025487768
96	0x3d64e0c5	0.05587842
97	0x3d6f5c01	0.05843735
98	0xbcec0cca	-0.028814692
99	0xbd6aa12b	-0.057282608
100	0x3d97444d	0.07386074
101	0x3d328792	0.04358632
102	0x3c74ade9	0.014934042
103	0xbd920fb8	-0.07131904
104	0x3c2fcabe	0.01072949
105	0xbced4dee	-0.028967824
106	0x3c8990a8	0.01679261
107	0x3d8f5e76	0.07000439
108	0x3caebd79	0.021330582
109	0x3d201453	0.039081883
110	0xbd0a7a59	-0.033808086
111	0xbd7fc101	-0.062439922
112	0x3ccb9705	0.024852285
113	0x3c43bc2c	0.011946719
114	0xb9c37619	-0.00037281288
115	0xbcc2555b	-0.023722341
116	0xbc69065f	-0.01422271
117	0xbca8031c	-0.020509295
118	0xbcf47022	-0.029838625
119	0x3bfe9ac5	0.007769915
120	0xbba2497e	-0.0049526086
121	0x3b18cf30	0.0023316853
122	0x3d6c3110	0.057663977
123	0x3db8f9a2	0.09031989
124	0xbd65c4ba	-0.056095816
125	0x3d15b6f9	0.03655145
126	0xbcbfd2e7	-0.023415996
127	0xbd16f2fa	-0.036852814
128	0xbc2ed600	-0.010671139
129	0x3d58611a	0.05282698
130	0x3e232479	0.15931882
131	0x3de9129e	0.11380504
132	0x3daeea96	0.085408375
133	0xbc928bcf	-0.017888932
134	0x3d2b929f	0.041887876
135	0x3d7e258b	0.062047523
136	0xbc9cde23	-0.019148892
137	0xbca66b99	-0.020314978
138	0x3c96b01f	0.018394528
139	0xbe0f4ed3	-0.13994913
140	0x3d3e397b	0.046441536
141	0xbdc78ba2	-0.0974343
142	0x3dedd84e	0.116135225
143	0x3dba44d4	0.09095159
144	0xbcc2dfb8	-0.023788318
145	0x39af2180	0.0003340356
146	0xbdc27b64	-0.09496191
147	0x3d88673e	0.06660317
148	0x3d7f2ea2	0.062300332
149	0x3c95eac3	0.01830042
150	0xbd322ed6	-0.043501697
151	0xbcb088bf	-0.02154958
152	0x3cf81452	0.030283127
153	0xbe168c55	-0.1470197
154	0xbc89c84b	-0.01681914
155	0xbe025c51	-0.12730528
156	0xbed26cce	-0.41098636
157	0xbd57b026	-0.052658223
158	0xbca43313	-0.020043885
159	0x3c95e4d2	0.018297587
160	0x3d76765e	0.060171477
161	0x3d7091c0	0.058732748
162	0xbc5288a7	-0.012849963
163	0xbd54a80b	-0.05191807
164	0x3da0823c	0.0783734
165	0x3d481cf7	0.048855748
166	0x3c5b3104	0.013378385
167	0xbd7ac60c	-0.06122403
168	0x3ad9e0d9	0.0016622796
169	0xbcbbb506	-0.022913467
170	0x3d0202ff	0.03174114
171	0x3d73803a	0.05944846
172	0x3ca4d5f1	0.020121546
173	0x3d18cb60	0.03730333
174	0xbd21a3d9	-0.039462898
175	0xbd38dcf2	-0.045132585
176	0x3c362470	0.011117086
177	0x3bd9cbbc	0.0066466015
178	0x3a893810	0.0010468978
179	0xbbad5a03	-0.0052902712
180	0xbcc495fb	-0.023997298
181	0xbccab916	-0.024746459
182	0xbcae770f	-0.021297006
183	0x3876a30c	5.880282e-05
184	0xbc31adbf	-0.010844647
185	0xbbffc71b	-0.0078057176
186	0x3d63e5ba	0.055639006
187	0x3da46f86	0.08029084
188	0xbda0364e	-0.07822858
189	0x3ca20c37	0.019781215
190	0xbcaf0e15	-0.02136902
191	0xbd08c892	-0.033394404
192	0x3d47996e	0.048730306
193	0x3d541d0a	0.051785506
194	0xbbfcc4b4	-0.0077138785
195	0xbd308fc5	-0.04310586
196	0x3d98ffb3	0.07470646
197	0x3d507d8e	0.05090099
198	0x3c9ef162	0.01940221
199	0xbd7d2c35	-0.061809737
200	0x3b9ba88a	0.004750316
201	0xbc970d8d	-0.018439079
202	0x3ce9fb5d	0.028562242
203	0x3d23ed10	0.040021002
204	0x3c3ed099	0.011646413
205	0x3d009379	0.03139064
206	0xbcde5781	-0.027141334
207	0xbd4f47fc	-0.05060576
208	0x3c32bff6	0.010910025
209	0x3b76871e	0.0037617157
210	0xbbd84b71	-0.00660079
211	0xbb9a9961	-0.004717991
212	0xbbd073fc	-0.0063614827
213	0xbc979bc5	-0.018506894
214	0xbc9cfb40	-0.019162774
215	0xbc470eca	-0.012149522
216	0x3af2a82a	0.0018513252
217	0x3bd76bf7	0.0065741497
218	0x3d723ff3	0.059143018
219	0x3da4e9f9	0.08052439
220	0xbd6bab40	-0.057536364
221	0x3c78cc31	0.015185402
222	0xbc9533b4	-0.01821313
223	0xbd2475c9	-0.04015139
224	0x3d90d91d	0.07072661
225	0x3d8efa36	0.06981318
226	0x3ba3098b	0.004975503
227	0xbd87e57d	-0.06635568
228	0x3d73f5ed	0.059560705
229	0x3d740b05	0.05958082
230	0x3d091353	0.033465695
231	0xbdc0cc91	-0.09414018
232	0x3c7833be	0.015149055
233	0xbcf4f16c	-0.029900275
234	0x3cb040cc	0.021515273
235	0x3d079da2	0.033109315
236	0x3ce3c55b	0.027804067
237	0x3cda1430	0.026620954
238	0xbd149a34	-0.036279872
239	0xbd6ee16a	-0.05832044
240	0x3cdcd557	0.026957197
241	0x3c43753e	0.011929808
242	0x3b432e88	0.0029782373
243	0xbcfbb5fb	-0.030726423
244	0xbc90b62f	-0.017664997
245	0xbcd0e281	-0.02549863
246	0xbd00c7fb	-0.031440716
247	0x3c90f438	0.017694578
248	0xbc1230e8	-0.008922793
249	0x38fd4d91	0.00012078428
250	0x3d96dcbc	0.073663205
251	0x3dc8d558	0.09806317
252	0xbdb4250b	-0.08796128
253	0x3cf9410b	0.030426523
254	0xbcd3c657	-0.025851412
255	0xbd24e06f	-0.0402531

context_transformer_0/ffn_layer_0/intermediate_dense/einsum/Einsum;context_transformer_0/ffn_layer_0/intermediate_dense/Relu;context_transformer_0/ffn_layer_0/intermediate_dense/add f4 [32]
0	0xbedd4e4a	-0.43223792
1	0xbeba3bea	-0.36373836
2	0xbef7aeb2	-0.4837547
3	0xbed07666	-0.4071533
4	0x3c1406e4	0.009034846
5	0xbee84289	-0.45363262
6	0xbea296b7	-0.3175561
7	0xbe079432	-0.13240126
8	0xbe9c1b77	-0.30489704
9	0xbea349bc	-0.31892192
10	0xbe706573	-0.234762
11	0xbeb97c29	-0.3622754
12	0xbf12743b	-0.57208604
13	0xbeeeaed2	-0.46617752
14	0xbdf1dfa9	-0.11810238
15	0xbea494f2	-0.32144886
16	0xbddf5392	-0.10904612
17	0xbe700c51	-0.23442198
18	0xbf0336f1	-0.5125571
19	0xbea4c598	-0.32182002
20	0xbe243375	-0.16035254
21	0xbd0c9b1a	-0.034327604
22	0xbeac9ec4	-0.3371488
23	0xbe226821	-0.15860035
24	0xbe899688	-0.2687266
25	0xbe3f488a	-0.18680015
26	0xbea20522	-0.3164454
27	0xbee13664	-0.4398681
28	0xbebdd513	-0.37076625
29	0xbe92ede8	-0.28697133
30	0xbeb5865f	-0.3545408
31	0xbe99c852	-0.30035645

context_transformer_0/attention/norm/mul;context_transformer_0/attention/norm/add;context_transformer_0/ffn_layer_0/intermediate_dense/einsum/Einsum;context_transformer_0/ffn_layer_0/intermediate_dense/Relu;context_transformer_0/ffn_layer_0/intermediate_dense/add f4 [32, 32]
0	0xbe686759	-0.22695674
1	0xbd9a4396	-0.07532422
2	0xbd699001	-0.0570221
3	0x3d3387b6	0.043830596
4	0x3db05ae3	0.08611085
5	0x3e70e9f4	0.23526746
6	0x3e0e3239	0.13886346
7	0x3d827c80	0.06371403
8	0x3bce18db	0.006289584
9	0x3f0a2689	0.5396505
10	0xbd48d844	-0.049034372
11	0x3e779349	0.24177279
12	0xbe4ea302	-0.2017937
13	0x3d9f7aa7	0.07787066
14	0xbda216f8	-0.07914537
15	0xbdd4cab7	-0.10390227
16	0x3e08adce	0.13347551
17	0xbe5f2a77	-0.21793543
18	0x3d14a91d	0.03629409
19	0xbe746426	-0.23866329
20	0xbd11ea01	-0.035623554
21	0x3e69fdc3	0.22850709
22	0xbe1ea53f	-0.15492724
23	0x3d9f6085	0.077820815
24	0x3e42ff89	0.19042791
25	0xbd5d545a	-0.054035522
26	0x3e7c3b93	0.24632101
27	0x3e0700a5	0.1318384
28	0x3e8826f9	0.26592234
29	0x3cc6e0c2	0.024277095
30	0xbe64a9aa	-0.22330347
31	0x3e22a770	0.15884185
32	0xbe52322f	-0.20526956
33	0xbe2bec8b	-0.16789453
34	0xbd134747	-0.035956647
35	0x3e36ce75	0.17852195
36	0xbdc1fc38	-0.09471935
37	0x3e772e69	0.24138798
38	0xbe6321e0	-0.22180891
39	0xbd135200	-0.035966873
40	0x3d73879b	0.059455495
41	0x3ebbd73b	0.36687645
42	0xbd069680	-0.03285837
43	0xbdb5cd55	-0.088770546
44	0x3e097125	0.13422067
45	0xbe1b4590	-0.15163255
46	0x3bc58d08	0.006028775
47	0xbd906fc0	-0.070525646
48	0x3b0f5303	0.0021869547
49	0x3bc283ce	0.0059361225
50	0xbe38e260	-0.18055105
51	0xbe4ccba7	-0.19999562
52	0x3dbed24c	0.09317455
53	0xbe95e929	-0.2927945
54	0x3e2ff2cb	0.17182462
55	0x3e2bf80a	0.16793838
56	0x3d11b7dd	0.035575736
57	0xbd328962	-0.04358805
58	0xbdc82566	-0.09772758
59	0x3ccccfb1	0.025001379
60	0xbe2cbcb8	-0.16868865
61	0x3ebcb65c	0.3685788
62	0xbdb91b15	-0.090383686
63	0xbe33b9af	-0.17551301
64	0xbdd319d5	-0.103076614
65	0x3e46388f	0.19357513
66	0x3e5982c1	0.21241285
67	0x3d83e215	0.06439606
68	0x3d924cda	0.071435645
69	0x3e725e5e	0.2366881
70	0xbdf15890	-0.1178447
71	0x3d482a0b	0.04886822
72	0xbdd265fa	-0.10273357
73	0x3eaf2f2b	0.34215674
74	0xbe1fd3c9	-0.15608133
75	0x3dcdeeca	0.10055311
76	0xbe1483ae	-0.14503357
77	0xbd809fea	-0.06280501
78	0xbeacdf70	-0.3376422
79	0x3dc0f4ee	0.09421717
80	0xbd8e202a	-0.069397286
81	0xbcbb9f5f	-0.022903142
82	0xbd7d9af4	-0.061915353
83	0xbd3a74e4	-0.04552163
84	0xbe2e520b	-0.17023484
85	0xbdab4554	-0.08362833
86	0x3e385592	0.18001392
87	0x3e4ff515	0.20308335
88	0x3e215d51	0.15758254
89	0x3c843026	0.01613624
90	0x3d0af011	0.03392035
91	0xbd9ad980	-0.07561016
92	0x3d8c4bcc	0.068503946
93	0x3e3156bf	0.17318247
94	0xbe3fbb16	-0.18723711
95	0x3e8fe3a3	0.2810336
96	0xbd9f8109	-0.077882834
97	0x3dba82ae	0.091069564
98	0xbbdc4988	-0.006722633
99	0xbdb90b74	-0.09035388
100	0x3e2a68b6	0.16641507
101	0x3e911ce2	0.28342348
102	0x3bb0477c	0.0053796154
103	0x3e82b165	0.25525966
104	0xbe2c9708	-0.16854489
105	0x3de2a691	0.11066926
106	0xbce98a25	-0.028508255
107	0xbaf5d189	-0.0018754463
108	0xbed77d03	-0.42087564
109	0xbd8bc053	-0.06823792
110	0xbcd4a6d6	-0.02595846
111	0xbe6a9c66	-0.22911224
112	0x3ea087d4	0.3135363
113	0xbd942c0b	-0.07234963
114	0x3dab67bb	0.083693944
115	0xbdc150ad	-0.09439216
116	0xbe16854b	-0.14699285
117	0xbe86f73d	-0.26360503
118	0x3d979f7d	0.07403467
119	0x3d19d99e	0.03756105
120	0x3d8a3945	0.067492045
121	0x3e1834ce	0.14863893
122	0xbdfe8ae8	-0.12428838
123	0xbe242b0f	-0.1603205
124	0xbd35d287	-0.044390228
125	0x3e3e016a	0.18555227
126	0x3da3a53c	0.079905
127	0x3ee46a8f	0.44612548
128	0xbd62a4a1	-0.055332784
129	0xbd8a6ebc	-0.06759402
130	0x3ea93689	0.3304942
131	0x3e399ee2	0.18127015
132	0x3e447af6	0.19187531
133	0x3e61df61	0.22057869
134	0xbd389057	-0.04505953
135	0xbdae55a9	-0.08512432
136	0x3cea941f	0.028635083
137	0x3d83cbaa	0.0643533
138	0x3d611268	0.054949194
139	0x3cbd7f42	0.02313197
140	0xbed5184a	-0.41620094
141	0xbea8e9df	-0.3299093
142	0x3e1ab240	0.1510706
143	0x3d0a9c2b	0.03384034
144	0xb88c0ad1	-6.677735e-05
145	0x3b8afb2c	0.004241368
146	0x3d3f3fe7	0.0466918
147	0xbe80e18e	-0.25172085
148	0x3db9ee09	0.09078605
149	0xbe54df86	-0.20788392
150	0xbe11b546	-0.14229307
151	0xbd340125	-0.043946404
152	0xbe6f274c	-0.23354834
153	0xbd25fa96	-0.04052218
154	0x3ede97fe	0.43475336
155	0x3d99f26c	0.075169414
156	0xbd90c416	-0.070686504
157	0xbc96fdb1	-0.018431516
158	0x3e534007	0.20629893
159	0x3d3434ee	0.04399579
160	0xbe8595c9	-0.2609084
161	0xbea5711c	-0.32312858
162	0xbdf9590d	-0.12175188
163	0x3e16bced	0.14720507
164	0x3e55bcfd	0.20872875
165	0x3da3cc5b	0.07997962
166	0xbdd61b10	-0.104543805
167	0xbe093a13	-0.1340106
168	0x3ea53c3e	0.32272524
169	0x3cb8a3f0	0.022539109
170	0xbd463b20	-0.04839623
171	0xbd063ee5	-0.032774825
172	0x3d5691c8	0.05238512
173	0xbea5a4f4	-0.32352412
174	0x3e4d3d1b	0.20042841
175	0xbe0464af	-0.12929033
176	0x3ddf2ffb	0.108978234
177	0xbd566b99	-0.052348707
178	0xbda021c0	-0.07818937
179	0xbe95f493	-0.29288158
180	0x3c1cc721	0.00956896
181	0xbd0acc29	-0.03388611
182	0xbd5e0089	-0.05419973
183	0x3ee6f437	0.45108196
184	0xbe26d506	-0.162922
185	0x3da544f2	0.08069791
186	0x3e58d10d	0.21173497
187	0x3df3efb4	0.11910954
188	0xbe5156aa	-0.20443216
189	0x3e2e0ce1	0.169971
190	0x3df48dd3	0.11941113
191	0xbd9b33cd	-0.075782396
192	0xbe482676	-0.19545922
193	0x3db7d95d	0.08977006
194	0xbdedbf09	-0.11608703
195	0x3e0c03af	0.1367328
196	0xbdd64b17	-0.10463541
197	0x3ea75459	0.3268154
198	0x3d978f6d	0.07400403
199	0x3ddc9a88	0.10771662
200	0x3de8bc02	0.11363985
201	0x3ee7048d	0.4512066
202	0xbe52a3c3	-0.20570283
203	0x3e608b16	0.21928057
204	0x3e1fb382	0.1559582
205	0x3c4e35f1	0.012586103
206	0x3c24870d	0.010041964
207	0x3e335b4c	0.17515296
208	0xbeca4a64	-0.3950988
209	0xbe41ce87	-0.1892644
210	0x3e06d444	0.1316691
211	0xbe991f93	-0.29906902
212	0xbe1acad3	-0.15116434
213	0x3db9ef23	0.09078815
214	0x3ca0d63a	0.019633401
215	0x3e952fac	0.29137933
216	0xbd0ae7cd	-0.03391247
217	0x3d172c93	0.036907744
218	0x3e26d99a	0.16293946
219	0x3e00964e	0.12557337
220	0x3e84f17b	0.25965485
221	0x3db0469c	0.08607218
222	0xbe24d29e	-0.16095969
223	0xb9d8fd60	-0.0004138751
224	0xbe5919bc	-0.21201223
225	0x3d7c7698	0.061636537
226	0x3e31ebb3	0.17375068
227	0xbea62bbd	-0.32455245
228	0x3e138794	0.14407188
229	0xbdcc41cf	-0.099734895
230	0x3e73ca4b	0.23807637
231	0xbe3f1d3e	-0.18663499
232	0xbe02b2af	-0.12763475
233	0xbd8e4e61	-0.06948543
234	0xbdc43cb1	-0.095818885
235	0x3e4c1d71	0.19933106
236	0xbb43d467	-0.002988124
237	0x3e066d48	0.13127625
238	0xbda70f8d	-0.08157263
239	0x3e37a450	0.17933774
240	0xbf01745d	-0.5056818
241	0xbdd42257	-0.10358112
242	0xbe333371	-0.17500092
243	0xbb99b48b	-0.004690712
244	0xbd5b928d	-0.05360656
245	0xbda71542	-0.081583515
246	0x3f1523ec	0.5825794
247	0xbb8ff4b5	-0.004393185
248	0xbe47dd4b	-0.1951801
249	0x3e548054	0.20752078
250	0xbe5715c0	-0.2100439
251	0xbe7df23a	-0.24799433
252	0x3d68b75a	0.056815483
253	0xbde3a913	-0.11116233
254	0x3e2c61bc	0.16834158
255	0xbe89d6ce	-0.26921695

context_transformer_0/ffn_layer_1/intermediate_dense/einsum/Einsum;context_transformer_0/ffn_layer_1/intermediate_dense/Relu;context_transformer_0/ffn_layer_1/intermediate_dense/add f4 [32]
0	0xbe3a3937	-0.18185888
1	0x3c8abfac	0.0169371
2	0x3cb5eabc	0.022206657
3	0xbe4fef20	-0.20306063
4	0xbd8a3777	-0.0674886
5	0xbe68fa78	-0.22751796
6	0xbe046026	-0.12927303
7	0xbdf86b96	-0.121298954
8	0x3e2ae650	0.1668942
9	0xbe8109c4	-0.25202763
10	0xbe91f44f	-0.28506705
11	0xbdf1d8e3	-0.11808946
12	0xbe279ed1	-0.16369177
13	0xbda3bee8	-0.07995397
14	0xbc97f716	-0.018550437
15	0xbd759ad2	-0.0599621
16	0x3df988e9	0.12184317
17	0xbcad0032	-0.021118257
18	0xbe46ace3	-0.19401889
19	0xbdc5a356	-0.096502945
20	0xbdd741dd	-0.10510609
21	0xbeaf7aa9	-0.3427327
22	0xbe18974d	-0.14901467
23	0xbe750fc1	-0.23931791
24	0xbc85420d	-0.016266847
25	0xbec493b5	-0.38393942
26	0x3e2f4d3f	0.17119311
27	0xbe0e27c9	-0.13882364
28	0x3daed4d6	0.08536689
29	0xbdaacd34	-0.08339921
30	0xbdd64111	-0.10461629
31	0x3de81705	0.113325156

context_transformer_0/ffn_layer_0/norm/mul;context_transformer_0/ffn_layer_0/norm/add;context_transformer_0/ffn_layer_1/intermediate_dense/einsum/Einsum;context_transformer_0/ffn_layer_1/intermediate_dense/Relu;context_transformer_0/ffn_layer_1/intermediate_dense/add f4 [32, 32]
0	0xbda5073a	-0.08058019
1	0x3d0ef2ac	0.0348994
2	0x3c22d97d	0.009939549
3	0xbce0c09a	-0.02743559
4	0xbce7547c	-0.028238527
5	0x3c12425e	0.008926956
6	0x3cb744f9	0.022371756
7	0xbbda2963	-0.0066577657
8	0xbce9b4ef	-0.028528659
9	0xbd07ef64	-0.033187285
10	0xbdd11f52	-0.10211052
11	0x3d32a6d3	0.043616127
12	0xbd9c4169	-0.076296635
13	0xb91853fe	-0.00014527139
14	0x3c22808c	0.009918343
15	0xbc9f2b94	-0.01942996
16	0xbda71569	-0.081583805
17	0x3cc88178	0.024475798
18	0x3ca27ff7	0.019836409
19	0xbca07031	-0.019584747
20	0x3d2cf213	0.042223047
21	0xbb28e1dc	-0.0025769388
22	0xbc9fd017	-0.019508405
23	0x3d559508	0.05214408
24	0x3d2384e7	0.039921667
25	0x3ccac456	0.024751823
26	0x3d498807	0.04920199
27	0xbd188a09	-0.037241016
28	0x3d48e970	0.04905075
29	0x3d6b0b8d	0.057384063
30	0xbd88c3f4	-0.06678
31	0xbdb102d9	-0.08643121
32	0xbda4b9eb	-0.080432735
33	0x3d09cb49	0.033641133
34	0x3c912238	0.017716512
35	0xbe3df438	-0.18550193
36	0xbda88123	-0.08227756
37	0xbd8174a5	-0.06321076
38	0xbcda48f4	-0.026646115
39	0xbd9525c5	-0.072825946
40	0x3ee666b5	0.45000234
41	0x3ea5da25	0.32392994
42	0x3d09a14a	0.033601083
43	0x3dd97842	0.106186405
44	0xbebca31c	-0.36843193
45	0xbe3efff3	-0.18652324
46	0xbe7a6d5a	-0.24455777
47	0x3e1b2d0b	0.15153901
48	0xbf09dab0	-0.53849316
49	0xbe2571d5	-0.16156705
50	0xbde70199	-0.112796016
51	0x3e34758f	0.1762297
52	0xbecfbf34	-0.40575564
53	0x3ed19131	0.40931085
54	0xbdae8d77	-0.08523076
55	0x3e4a8b9a	0.19779816
56	0x3dd177cc	0.102279276
57	0x3e128d1a	0.14311638
58	0x3ea2b25b	0.317767
59	0x3dbf5607	0.0934258
60	0xbd85cfa7	-0.06533747
61	0x3eac0dd0	0.33604288
62	0xbca7cc15	-0.020483056
63	0x3d0e535e	0.034747474
64	0xbec1dbca	-0.37862998
65	0x3e870f4a	0.26378852
66	0x3ddab921	0.10679842
67	0x3d5b0bfb	0.053478222
68	0x3e84a2fd	0.259056
69	0xbd4495c1	-0.04799438
70	0x3e3fb75a	0.18722287
71	0xbddaca30	-0.106830955
72	0xbd906725	-0.07050923
73	0xbc7343cb	-0.014847706
74	0xbeb89a59	-0.36055258
75	0x3ddecc37	0.10878795
76	0xbe99317b	-0.29920563
77	0x3acba7c7	0.0015537672
78	0xbc180407	-0.009278304
79	0xbd0dd505	-0.03462698
80	0x3d9428f1	0.072343715
81	0xbe1c2223	-0.15247397
82	0x3e150f31	0.14556576
83	0x3dfebaaf	0.12437951
84	0xbdd4bed0	-0.10387957
85	0xbd884848	-0.066544116
86	0xbd2ff389	-0.042956863
87	0x3e379c9c	0.17930835
88	0xbd57fc73	-0.05273099
89	0x3d17381b	0.03691874
90	0x3d07d017	0.033157434
91	0x3c4c00bf	0.01245135
92	0x3c8b1258	0.01697652
93	0x3e37c59f	0.1794648
94	0x3e03a2b9	0.12855043
95	0x3ddd4dd6	0.10805862
96	0xbe7b125f	-0.24518727
97	0xbdabf128	-0.08395606
98	0x3db17c31	0.08666266
99	0x3d9456ea	0.0724314
100	0x3d3a8a2b	0.045541923
101	0x3e85daee	0.26143593
102	0x3e118f32	0.14214781
103	0x3d8644e2	0.06556107
104	0x3e062920	0.13101625
105	0xbe964222	-0.2934733
106	0xbe0c7507	-0.13716517
107	0x3dad2f7b	0.08456322
108	0xbe1871ae	-0.14887115
109	0x3d08a92a	0.033364452
110	0x3d77a3ea	0.060459055
111	0xbe9138f8	-0.28363776
112	0x3e7f3f75	0.2492655
113	0x3ca52257	0.020157976
114	0xbcc051a0	-0.023476422
115	0x3c551f2e	0.013007922
116	0x3e4c29c4	0.19937807
117	0x3dcd78fe	0.10032843
118	0x3e514067	0.20434724
119	0xbd7c7a71	-0.061640207
120	0x3d531b0c	0.051539466
121	0xbdd6e3db	-0.10492679
122	0x3e56ade6	0.20964774
123	0xbd5274c8	-0.051380903
124	0x3e2dad26	0.16960582
125	0x3cb8796a	0.022518832
126	0xbe4271ce	-0.18988726
127	0x3b95ea72	0.004575067
128	0xbe75ce86	-0.24004564
129	0xbe6ead41	-0.23308279
130	0xbe00d73c	-0.12582105
131	0x3d0ad3c3	0.033893358
132	0xbdc5c6d8	-0.09657067
133	0x3ddb4f4d	0.10708485
134	0x3e1d0ec1	0.1533766
135	0x3e357ba7	0.17722951
136	0xbdb5a59d	-0.08869479
137	0x3ea4ca4e	0.32185596
138	0xbee1ea05	-0.44123855
139	0x3e893847	0.2680075
140	0xbe370bdd	-0.17875619
141	0xbd76787e	-0.060173504
142	0x3d0e7d61	0.03478754
143	0x3e2ed954	0.17075092
144	0x3e4623bd	0.1934957
145	0xbe05a7eb	-0.13052337
146	0x3ddc8633	0.10767784
147	0x3d642e4f	0.055708226
148	0xbe075fc2	-0.13220122
149	0xbe4cc864	-0.19998318
150	0x3d5177d4	0.051139668
151	0x3e9f0942	0.3106175
152	0x3d2ccf69	0.04218999
153	0x3e4211fd	0.18952174
154	0xbd27751c	-0.04088317
155	0xbcfba1f0	-0.030716866
156	0x3eb33e44	0.35008442
157	0x3e184618	0.14870489
158	0xbd904873	-0.070450686
159	0x3dc50057	0.096192054
160	0xbdd007e4	-0.10157755
161	0xbdb53ef7	-0.088499
162	0xbe349a89	-0.17637075
163	0xbdb69d1f	-0.08916687
164	0xbe3861df	-0.18006085
165	0x3d4c6507	0.049901035
166	0x3e993b52	0.2992807
167	0x3d2993e1	0.041400794
168	0x3e3db450	0.18525815
169	0xbd8f4478	-0.06995481
170	0xbdd5b419	-0.104347415
171	0xbd3e0057	-0.046387043
172	0x3e28c737	0.16482244
173	0xbd843f79	-0.06457419
174	0x3bfec80b	0.007775312
175	0x3d395ded	0.04525559
176	0xbc91c14b	-0.017792365
177	0x3c62f9ac	0.013853472
178	0x3ceae88b	0.028675338
179	0xbed49351	-0.41518643
180	0x3cfaea9c	0.030629449
181	0xbeadb271	-0.33925202
182	0x3e4b863c	0.19875425
183	0x3e23c848	0.1599437
184	0xbe3092c4	-0.17243487
185	0x3e27f648	0.16402543
186	0xbe710122	-0.23535588
187	0xbd007dd3	-0.031369995
188	0xbe4829b7	-0.19547163
189	0xbd5af5ac	-0.053456947
190	0xbe9b7825	-0.303651
191	0xbea80736	-0.32818002
192	0xbdf012c9	-0.11722333
193	0xbd35581d	-0.044273484
194	0x3eb4f8c6	0.3534605
195	0x3eac2ccb	0.33627924
196	0x3e24e1f7	0.16101824
197	0xbb481d6c	-0.0030535115
198	0xbc9d7164	-0.019219108
199	0xbe368fe9	-0.17828335
200	0xbe1b5ced	-0.15172167
201	0xbe19490f	-0.14969276
202	0xbd38bbe3	-0.045101058
203	0x3dd1c3a2	0.10242392
204	0xbe38ce62	-0.18047479
205	0x3d9d1843	0.07670643
206	0x3d97b7e5	0.07408122
207	0xbdcba292	-0.09943117
208	0xbee4a486	-0.4465677
209	0x3d23b175	0.039964158
210	0xbe39c593	-0.18141775
211	0xbd966256	-0.07342975
212	0x3e3a800d	0.1821291
213	0x3e037aa0	0.12839746
214	0x3e34d2b1	0.17658497
215	0xbe002b7e	-0.12516591
216	0xbd9c01bd	-0.07617519
217	0xbecdb02b	-0.40173468
218	0x3d8cfd22	0.06884219
219	0xbb98540b	-0.0046486906
220	0x3e46b962	0.19406655
221	0xbd7faa20	-0.062418103
222	0xbe12304f	-0.14276241
223	0xbd3b5fdb	-0.04574571
224	0xbeca9bb0	-0.39571905
225	0x3cd6a503	0.02620173
226	0x3e59b6c7	0.2126113
227	0x3e02f0e9	0.12787212
228	0x3e976a0c	0.29573095
229	0xbc1b13eb	-0.009465198
230	0x3dc22cfd	0.09481237
231	0xbdffec8b	-0.12496289
232	0x3e853bd8	0.2602222
233	0x3cb7b54b	0.022425314
234	0xbf19e6a2	-0.6011754
235	0x3e0a4520	0.13502932
236	0xbe5a1cba	-0.21300021
237	0x3ca2ee92	0.01988915
238	0xbd377842	-0.04479242
239	0x3e12b5c1	0.14327146
240	0x3e0e5c21	0.13902332
241	0xbd11449b	-0.035465818
242	0xbd6d065f	-0.057867404
243	0x3e099ac2	0.13437942
244	0xbdf1f454	-0.1181418
245	0xbdb25c9f	-0.08709072
246	0x3e139059	0.14410533
247	0xbd8cced7	-0.06875389
248	0x3d9f0937	0.077654295
249	0x3d30e538	0.04318735
250	0xbe09a8fd	-0.1344337
251	0x3d41a171	0.047273103
252	0xbc39f84d	-0.011350703
253	0x3e26a225	0.1627279
254	0xbd2eee11	-0.042707507
255	0x3d8eddf3	0.06975927

context_transformer_0/ffn_layer_2/intermediate_dense/einsum/Einsum;context_transformer_0/ffn_layer_2/intermediate_dense/Relu;context_transformer_0/ffn_layer_2/intermediate_dense/add f4 [32]
0	0x3c7724d4	0.015084464
1	0x3d91319c	0.0708954
2	0xbe2f3e79	-0.17113675
3	0xbd084106	-0.033265136
4	0x3e3564c3	0.17714219
5	0xbe17d5fd	-0.14827724
6	0xbd87a6a4	-0.06623581
7	0xbe22dae8	-0.15903819
8	0xbe99d4d5	-0.3004519
9	0xbdb75bdd	-0.089530684
10	0x3e034837	0.12820517
11	0xbdd4151a	-0.10355587
12	0x3c55f61b	0.013059164
13	0x3dc60963	0.09669759
14	0xbdd4edcf	-0.10396921
15	0xbe6439a1	-0.22287609
16	0x3dd6dba0	0.10491109
17	0xbea24176	-0.31690568
18	0xbe946818	-0.28985667
19	0x3e146067	0.144899
20	0xbde29729	-0.11063988
21	0xbe9887d1	-0.2979112
22	0xbec78a38	-0.3897264
23	0x3da5c5f8	0.080944
24	0x3df8b298	0.12143439
25	0xbe731d84	-0.23741728
26	0xbe080d2c	-0.13286275
27	0xbde4fd06	-0.11181073
28	0x3e0d2f67	0.13787614
29	0xbea09312	-0.31362206
30	0xbe15e648	-0.14638627
31	0x3b8c4960	0.004281208

context_transformer_0/ffn_layer_1/norm/mul;context_transformer_0/ffn_layer_1/norm/add;context_transformer_0/ffn_layer_2/intermediate_dense/einsum/Einsum;context_transformer_0/ffn_layer_2/intermediate_dense/Relu;context_transformer_0/ffn_layer_2/intermediate_dense/add f4 [32, 32]
0	0xbe24c8af	-0.1609218
1	0x3e3b3610	0.18282342
2	0x3d4bbd32	0.049740978
3	0x3e4413aa	0.19148126
4	0x3e8a0b43	0.26961717
5	0x3de99c85	0.11406807
6	0x3d5d916e	0.05409377
7	0xbdd18951	-0.10231269
8	0x3df28f44	0.11843732
9	0xbe2cd83d	-0.16879363
10	0xbd6ca3e8	-0.0577735
11	0x3d0efe23	0.034910332
12	0xbd11f55c	-0.035634384
13	0x3c39904c	0.011325907
14	0xbe5b62f5	-0.21424468
15	0xbdf5ce8e	-0.12002288
16	0xbe5d24d8	-0.21596086
17	0x3e1a729b	0.15082781
18	0x3d67cb2f	0.056590255
19	0xbd7607da	-0.06006608
20	0xbead3693	-0.338307
21	0x3e117561	0.14204933
22	0x3eb89ab6	0.36055535
23	0x3e5dc817	0.2165836
24	0x3e03c16a	0.1286675
25	0xbe0538ac	-0.130099
26	0x3d188316	0.03723439
27	0x3d5936f3	0.05303092
28	0x3d979e9a	0.07403298
29	0x3e2a84a3	0.1665216
30	0xbe5addd1	-0.21373679
31	0xbd5e0d1b	-0.054211717
32	0xbe198433	-0.14991836
33	0xbe6ec121	-0.2331586
34	0x3e0fa3c5	0.14027317
35	0xbc264097	-0.010147235
36	0x3cfae9b9	0.030629026
37	0x3c65bb64	0.014021728
38	0x3cb72550	0.02235666
39	0x3dc5e7ed	0.09663377
40	0x3c710d28	0.014712609
41	0xbe3ab497	-0.18232952
42	0xbdf0d8df	-0.11760115
43	0x3e5c64e7	0.21522866
44	0x3cd4c13e	0.025971051
45	0xbd87bb10	-0.06627476
46	0x3e6858ac	0.22690076
47	0xbe24fe9f	-0.16112755
48	0x3d4b118a	0.049577273
49	0xbd8c8e06	-0.06863026
50	0xbe1d81d3	-0.15381555
51	0xbdd2be07	-0.10290151
52	0xbd359a95	-0.044336874
53	0x3e9fad06	0.31186694
54	0xbde37be6	-0.11107616
55	0x3dbfd54c	0.09366855
56	0xbea15317	-0.31508705
57	0x3d3a6b8b	0.045512717
58	0xbe68a763	-0.22720103
59	0x3cf25837	0.02958308
60	0x3a401300	0.000732705
61	0x3e3a5501	0.18196489
62	0x3d5a9d54	0.053372696
63	0x3e3bc435	0.18336566
64	0xbe2cf39f	-0.16889809
65	0x3d8f2132	0.069887534
66	0xbc2d106f	-0.010563
67	0x3d8b7477	0.06809323
68	0x3e383491	0.17988802
69	0xbd359465	-0.044330973
70	0x3ec13e5d	0.37742892
71	0xbe112ce6	-0.14177284
72	0x3df98909	0.121843405
73	0x3e24fc8c	0.16111964
74	0xbd4a0dbd	-0.049329508
75	0xbccd74a6	-0.025080036
76	0x3e693ff1	0.22778298
77	0x3e9144d2	0.28372818
78	0x3ed50104	0.41602337
79	0xbdcbaf3a	-0.09945531
80	0x3d81dcb8	0.06340927
81	0x3e4b8901	0.19876482
82	0x3ed74a24	0.42048752
83	0xbdfe600d	-0.12420664
84	0xbdb9eabe	-0.09077977
85	0x3e140a99	0.14457168
86	0x3ea35474	0.3190037
87	0xbcc21e9a	-0.023696233
88	0xbdaf860c	-0.08570489
89	0xbda022b9	-0.07819123
90	0xbdc7b325	-0.09750966
91	0xbe344e2e	-0.17607948
92	0x3d29218d	0.041291762
93	0xbdf6b210	-0.120456815
94	0xbee16c07	-0.4402773
95	0xbea98c2d	-0.33114758
96	0xbcc50ca2	-0.024053875
97	0x3e173e3b	0.14769833
98	0x3d781075	0.06056257
99	0xbe16b6c0	-0.14718151
100	0x3cfff568	0.031244949
101	0x3e5591a6	0.20856342
102	0x3d8dbae0	0.06920409
103	0xbdd1b27b	-0.102391206
104	0xbc8febed	-0.017568553
105	0xbd2a6fed	-0.041610647
106	0xbd7d7640	-0.06188035
107	0xbd046110	-0.03231913
108	0x3e00b9dc	0.125709
109	0x3cf82cb5	0.030294755
110	0x3e9e9119	0.30970076
111	0xbd754983	-0.05988456
112	0x3ea2fc6a	0.31833202
113	0x3de90d01	0.113794334
114	0xbcb353e9	-0.021890597
115	0xbdb65006	-0.08901982
116	0x3dd2275a	0.10261412
117	0xbd08deb8	-0.033415526
118	0x3e567854	0.20944339
119	0x3e5d6d4a	0.21623722
120	0xbead6f97	-0.338742
121	0xbd9bf923	-0.076158784
122	0xbe067498	-0.13130414
123	0xbe4b23ae	-0.1983783
124	0xbe4979f4	-0.19675428
125	0x3e166111	0.14685465
126	0xbdf95587	-0.12174516
127	0x3e855735	0.26043096
128	0xbed0e4e8	-0.40799642
129	0xbc02b22f	-0.007977053
130	0x3e71c14f	0.23608898
131	0x3c1ddf3e	0.009635745
132	0xbba09a9c	-0.0049012434
133	0xbea07e1e	-0.3134622
134	0xbbd6a7c2	-0.00655076
135	0xbe4b6aae	-0.19864914
136	0x3cf1e95e	0.029530223
137	0xbb22a38c	-0.002481672
138	0xbe84af04	-0.25914776
139	0x3e8fd991	0.28095677
140	0xbd1e6cf9	-0.038678143
141	0xbdd06b42	-0.10176708
142	0x3e2701b1	0.16309239
143	0xbcab5e25	-0.020918915
144	0xbd5d43a2	-0.054019578
145	0xbe222ee9	-0.15838207
146	0x3da50583	0.08057692
147	0xbd835ee9	-0.06414587
148	0xbe0d13a7	-0.13777028
149	0xbdcaa10d	-0.09893999
150	0xbdedc130	-0.11609113
151	0xbdfc752e	-0.12327038
152	0xbe886974	-0.26642954
153	0x3c4d7a74	0.012541402
154	0x3cadd949	0.021221774
155	0x3dc210f7	0.09475892
156	0xbd8bed69	-0.06832392
157	0x3e71f1eb	0.2362744
158	0x3da52e6f	0.08065497
159	0xbd36d14a	-0.044633187
160	0xbe062376	-0.13099465
161	0x3e48575c	0.19564575
162	0xbd532b41	-0.051554922
163	0x3e7ec0dd	0.24878259
164	0xbe53a8b2	-0.20669821
165	0x3e3a7ab3	0.18210869
166	0xbd3b8869	-0.045784388
167	0x3e350dc2	0.1768103
168	0xbe08dc8f	-0.13365386
169	0x3d24d55c	0.040242538
170	0xbe0b95a7	-0.13631307
171	0x3e09c6ad	0.13454695
172	0x3e818de3	0.25303563
173	0xbdef5b65	-0.11687354
174	0x3d1bee3c	0.038068995
175	0x3d357a43	0.04430605
176	0x3d445c99	0.04793987
177	0xbe0057a9	-0.1253344
178	0xbe2131fa	-0.15741721
179	0xbe144390	-0.14478898
180	0x3d16a091	0.03677422
181	0xbd2d6abe	-0.042338125
182	0xbe84ee72	-0.2596317
183	0x3d4f5fc1	0.050628427
184	0x3dcdb2b5	0.10043851
185	0xbbd4fb6f	-0.0064997
186	0xbe6cfa6c	-0.23142403
187	0x3dc20c2b	0.09474977
188	0xbe15fc42	-0.1464701
189	0x3daf661f	0.085644
190	0xbdfbdb8b	-0.12297734
191	0x3d1688b0	0.03675145
192	0xbdb4dd2e	-0.08831249
193	0x3d239fbe	0.039947264
194	0x3d841856	0.06449954
195	0xbcc07c51	-0.023496779
196	0x3d054a9e	0.032541864
197	0xbdb36c7f	-0.08760928
198	0x3dc29669	0.09501345
199	0x3b3920c0	0.002824828
200	0xbc3451b2	-0.011005806
201	0x3c878ade	0.01654571
202	0xbdc01f05	-0.093809165
203	0x3d5a02de	0.05322539
204	0x3cdd406b	0.027008256
205	0xbd32fb7e	-0.043696873
206	0x3c67acfc	0.014140364
207	0xbcd454d6	-0.02591936
208	0xbd89eb8f	-0.06734382
209	0xbc0842b2	-0.008316683
210	0xbbc4b8a4	-0.006003456
211	0x3b1230e6	0.0022306978
212	0xbd032604	-0.032018676
213	0xbcd41175	-0.02588723
214	0xbd45ea37	-0.048319068
215	0xbe046ca0	-0.12932062
216	0x3cb08a9d	0.021550471
217	0x3d6439f5	0.055719335
218	0xbd60f1ba	-0.05491803
219	0xbd1dc870	-0.03852123
220	0xbce3cfee	-0.02780911
221	0xbd969039	-0.07351727
222	0xbcdeb926	-0.027187895
223	0xbcd3ff19	-0.025878476
224	0xbdc8335a	-0.097754195
225	0xbe09dc4f	-0.13462947
226	0xbcb0979f	-0.021556674
227	0xbd91f3ae	-0.07126556
228	0x3e1ddc9f	0.15416192
229	0xbea76dc4	-0.32700932
230	0x3ea19721	0.31560615
231	0xbc9205cd	-0.017825032
232	0x3e35e96f	0.17764829
233	0x3ee11696	0.43962544
234	0xbe5beb11	-0.2147639
235	0x3e1fe31c	0.15613979
236	0xbd803310	-0.062597394
237	0x3e835fbd	0.2565898
238	0xbe723297	-0.23652111
239	0x3e0a28da	0.13492146
240	0xbcd4fb90	-0.02599886
241	0x3e0baccd	0.13640137
242	0xbde28bc8	-0.110618174
243	0xbd12b2b9	-0.035814974
244	0x3de68e13	0.11257567
245	0xbd920958	-0.071306884
246	0xbde001e8	-0.109378636
247	0x3dccb9d5	0.09996382
248	0xbdda1158	-0.10647839
249	0x3d33c053	0.043884587
250	0x3e9285c0	0.28617668
251	0x3c467cac	0.012114685
252	0x3ec23dbc	0.37937725
253	0xbe289f7e	-0.16467091
254	0xbe8e82ca	-0.2783416
255	0x3e4d0d87	0.20024692

context_transformer_0/ffn_layer_3/intermediate_dense/einsum/Einsum;context_transformer_0/ffn_layer_3/intermediate_dense/Relu;context_transformer_0/ffn_layer_3/intermediate_dense/add f4 [32]
0	0xbdef2bdf	-0.116782896
1	0xbd9d1d48	-0.076716006
2	0xbdadfd11	-0.08495534
3	0xbe0e9426	-0.13923702
4	0xbc8218a3	-0.015880888
5	0x3ca2a388	0.019853368
6	0xbe980cf2	-0.29697376
7	0xbe97f77c	-0.29681003
8	0xbd34ceb8	-0.044142455
9	0xbe199ba1	-0.15000774
10	0xbe392236	-0.18079457
11	0xbe307b2c	-0.17234486
12	0xbe0c64bf	-0.13710307
13	0xbe12226a	-0.1427094
14	0x3bdb2d50	0.0066887513
15	0xbdb832d1	-0.089940675
16	0xbd8cdaf3	-0.06877699
17	0xbe26f065	-0.1630264
18	0xbe3819fe	-0.17978665
19	0xbe41b02c	-0.1891486
20	0xbdb40348	-0.08789688
21	0xbe6954d5	-0.22786267
22	0xbc8d3465	-0.017236898
23	0xbe8cf143	-0.27527818
24	0xbd6f69fb	-0.05845068
25	0xbe369640	-0.17830753
26	0xbe084749	-0.13308443
27	0xbd14c587	-0.03632119
28	0xbd92e7f3	-0.07173147
29	0xbdbff144	-0.0937219
30	0x3d2110b7	0.03932258
31	0xbd51cf12	-0.05122287
